src/results/q5_linear/model.weights.pt (torch, 3047 bytes, 2 tensors)

weight f4 [5, 100]
0.19802588 -0.10821356 0.034910712 -0.30745998 -0.071000926 -0.49587172 -0.21470393 -0.8590328
0.1583427 0.30171978 0.45688495 0.36369935 -0.38297912 0.08962951 0.24417368 -0.11848136
-0.32565144 -0.05706061 -0.12362486 -0.25980693 -0.09958723 -0.11659028 0.036456965 -0.23592722
0.19284005 -0.1602658 0.19182076 -0.21944228 0.04331728 0.2593242 0.13052616 0.07930155
0.20795153 0.03355562 0.14594619 -0.40801862 -0.41518277 -0.4097144 0.07512196 -0.12578832
-0.038877893 -0.15845154 -0.19804078 0.09881306 0.16601926 0.18674581 -0.2793051 -0.006576631
-0.18199839 0.2860104 0.12410825 0.32052281 0.028737517 -0.0164666 0.17802778 0.06096666
-0.1045272 0.17862521 -0.14498529 0.0097207595 0.13846213 0.106939934 -0.3111542 -0.81534463
-0.43726206 -0.34091586 -0.39111394 -0.063827805 -0.3587378 -0.37521452 -0.022360804 0.122332335
0.01592114 0.36239922 -0.044443365 0.24700613 -0.08178969 -0.31867334 -0.16056345 0.16298316
0.1360627 -0.27910593 -0.2775787 -0.011409947 -0.07962917 0.32159597 0.075818226 0.39695957
0.04272623 -0.51320136 0.23841108 -0.20650499 -0.32764488 0.093752705 0.2277919 -0.11686372
-0.11310885 0.083521724 0.025352487 0.44215453 -0.24565913 0.11198972 0.1775661 0.056034032
-0.28439572 -0.097548835 -0.25317004 -0.14423415 0.00841744 -0.27247387 0.11846299 0.64448404
0.03178434 0.29917112 0.19309017 0.2538003 0.21437971 0.19094287 0.06433874 0.12545335
-0.26813596 0.005829467 -0.40766838 0.06705678 0.21026953 0.15243703 0.11969053 0.018852044
-0.24692707 0.06530444 0.25454193 0.12906902 0.2564456 0.16425604 -0.21530998 0.11786678
-0.034388527 -0.41141075 -0.42903298 -0.025829975 -0.22512011 0.21624005 0.32744586 0.4159775
-0.110292025 -0.07489157 -0.10079211 -0.13038239 -0.17447622 -0.018113382 0.013117068 0.88028
-0.20252675 -0.4246082 0.0035664353 -0.080733046 -0.24036665 -0.24725099 -0.10518126 -0.49924058
0.17777984 -0.14281797 -0.11588169 -0.7699808 -0.19681332 -0.01885447 0.097226575 -0.08586862
-0.23675591 -0.30607337 -0.07517771 0.103955165 0.013252866 -0.3089019 0.3956979 0.6838347
0.19650038 -0.36974436 -0.23865864 0.10297471 0.017427387 -0.3350435 -0.2612877 0.025058778
-0.32070905 -0.19677894 0.33378273 0.3964821 -0.39807916 -0.47072968 -0.3932556 -0.045934334
-0.16427426 -0.45616913 -0.0066410485 0.19903666 -0.28079283 0.19679421 0.23737094 0.4678875
-0.16395684 0.07976893 0.018908601 0.025659382 -0.38179788 -0.13737734 -0.4751223 -1.7232054
-0.24665123 0.11956585 0.30008936 0.9939963 0.15274419 0.35012633 -0.029143602 1.0196816
-0.022337675 -0.08706772 0.1361817 0.96455264 0.08661703 0.015686244 -0.12407932 0.08357547
0.018501118 -0.12794974 0.25644726 0.54968554 -0.04430768 -0.27200547 -0.29129305 0.22733732
0.033708364 0.04935643 -0.2505834 -1.3140434 0.049060065 -0.039667644 -0.5879104 -0.96298766
-0.12383826 0.2491686 0.25089023 1.1331578 -0.29394612 -0.20634213 0.07371503 0.40544736
0.17623425 -0.21554668 0.3709464 1.9913886 -0.08079588 0.0317296 -0.5894984 -0.8793539
00000000: 4cc7 4a3e 129f ddbd 89fe 0e3d 656b 9dbe
00000010: ef68 91bd e6e2 fdbe 59db 5bbe 93e9 5bbf
00000020: 9724 223e 047b 9a3e d3ec e93e cd36 ba3e
00000030: d715 c4be ad8f b73d aa08 7a3e 5ba6 f2bd
00000040: c9bb a6be 63b8 69bd 082f fdbd 6a05 85be
00000050: 64f4 cbbd e2c6 eebd e653 153d e896 71be
00000060: dd77 453e b81c 24be a96c 443e 7ab5 60be
00000070: 766d 313d 24c6 843e a6a8 053e da68 a23d
00000080: 3ff1 543e 9e71 093d eb72 153e d1e7 d0be
00000090: d692 d4be 16c6 d1be 8bd9 993d a7ce 00be
000000a0: 6d3e 1fbd 1f41 22be 34cb 4abe 805e ca3d
000000b0: f400 2a3e 4b3a 3f3e 1401 8fbe c880 d7bb
000000c0: c95d 3abe f56f 923e 772c fe3d 911b a43e
000000d0: f16a eb3c f7e4 86bc ea4c 363e 2db8 793d
000000e0: 5b12 d6bd 87e9 363e 0677 14be d243 1f3c
000000f0: 04c9 0d3e 5303 db3d 9a4f 9fbe 6dba 50bf
00000100: d0e0 dfbe 868c aebe 1640 c8be 27b8 82bd
00000110: 7bac b7be 1e1c c0be 012e b7bc 6089 fa3d
00000120: 0d6d 823c 648c b93e 3f0a 36bd 2def 7c3e
00000130: 5a81 a7bd 2729 a3be bf6a 24be 0fe5 263e
00000140: 0554 0b3e f9e6 8ebe cc1e 8ebe c9f0 3abc
00000150: 9e14 a3bd 3aa8 a43e 9646 9b3d 493e cb3e
00000160: b301 2f3d 2a61 03bf 0922 743e 0b76 53be
00000170: 12c1 a7be 6b01 c03d 4842 693e 3f56 efbd
00000180: 9da5 e7bd 700d ab3d 05b0 cf3c 1462 e23e
00000190: 118e 7bbe de5a e53d e3d3 353e f183 653d
000001a0: 519c 91be afc7 c7bd 819f 81be 1eb2 13be
000001b0: 4de9 093c b281 8bbe b99c f23d e8fc 243f
000001c0: 4c30 023d f52c 993e 6eb9 453e 1df2 813e
000001d0: 5b86 5b3e 8786 433e 08c4 833d d876 003e
000001e0: 1e49 89be 1d05 bf3b e9b9 d0be 1155 893d
000001f0: e550 573e 7418 1c3e 4f20 f53d 9a6f 9a3c
00000200: 73da 7cbe 56be 853d 5253 823e ab2a 043e
00000210: d64c 833e bc32 283e 387a 5cbe 2364 f13d
00000220: fcda 0cbd 6ea4 d2be 36aa dbbe 6299 d3bc
00000230: e385 66be 086e 5d3e fca6 a73e 01fb d43e
00000240: c9e0 e1bd c060 99bd 186c cebd f682 05be
00000250: e5a9 32be 8462 94bc f9e8 563c 085a 613f
00000260: 2c63 4fbe 3f66 d9be dbba 693b 5e57 a5bd
00000270: ad22 76be 5d2f 7dbe 4669 d7bd 769c ffbe
00000280: eb0b 363e e03e 12be 6153 edbd 761d 45bf
00000290: 6e89 49be b174 9abc ba1e c73d e3db afbd
000002a0: 2470 72be a6b5 9cbe c5f6 99bd 72e6 d43d
000002b0: 8d22 593c 6428 9ebe ea98 ca3e ca0f 2f3f
000002c0: 6537 493e 224f bdbe ee62 74be 68e4 d23d
000002d0: e1c3 8e3c d28a abbe 80c7 85be 1148 cd3c
000002e0: fa33 a4be 6b80 49be 92e5 aa3e b4ff ca3e
000002f0: 08d1 cbbe 7b03 f1be cc58 c9be a425 3cbd
00000300: 8337 28be 008f e9be 279d d9bb 44d0 4b3e
00000310: 14c4 8fbe 6c84 493e 5e11 733e f38e ef3e
00000320: 4de4 27be e55d a33d 36e6 9a3c a033 d23c
00000330: 037b c3be a5ac 0cbe 3b43 f3be ff91 dcbf
00000340: 2492 7cbe f1de f43d 50a5 993e 8b76 7e3f
00000350: f968 1c3e c243 b33e 90be eebc ed84 823f
00000360: 80fd b6bc 9050 b2bd 3773 0b3e ecec 763f
00000370: 4564 b13d 7080 803c 4c1d febd 9e29 ab3d
00000380: a88f 973c 4205 03be 0e4d 833e 31b8 0c3f
00000390: f87b 35bd 4d44 8bbe 5d24 95be 1dcb 683e
000003a0: c811 0a3d f829 4a3d 784c 80be 9332 a8bf
000003b0: 35f3 483d 8a7a 22bd 4c81 16bf 5c86 76bf
000003c0: ea9e fdbd 0e26 7f3e af74 803e 510b 913f
000003d0: 1b80 96be 5a4b 53be e8f7 963d cc96 cf3e
000003e0: c076 343e 45b8 5cbe b0ec bd3e d2e5 fe3f
000003f0: 4f78 a5bd e6f6 013d 5ee9 16bf 561d 61bf

bias f4 [5]
2.2591028 2.2320528 4.112641 1.110618 1.9084913
00000000: 2495 1040 f4d9 0e40 c19a 8340 bb28 8e3f
00000010: 7149 f43f
